…
   "cell_type": "code",
   "execution_count": 3,
   "metadata": {
    "colab": {
     "base_uri": "https://localhost:8080/"
    },
    "id": "D_uCzMJSbu-G",
    "outputId": "ca12a58a-ceb2-430f-c999-9a9a93ac9335"
   },
   "outputs": [
    {
     "name": "stdout",
     "output_type": "stream",
     "text": [
      "Model: \"sequential\"\n",
      "_________________________________________________________________\n",
      "Layer (type)                 Output Shape              Param #   \n",
      "=================================================================\n",
      "lstm (LSTM)                  (None, 275, 128)          66560     \n",
      "_________________________________________________________________\n",
      "lstm_1 (LSTM)                (None, 275, 9)            4968      \n",
      "_________________________________________________________________\n",
      "max_pooling1d (MaxPooling1D) (None, 69, 9)             0         \n",
      "_________________________________________________________________\n",
      "flatten (Flatten)            (None, 621)               0         \n",
      "_________________________________________________________________\n",
      "dense (Dense)                (None, 256)               159232    \n",
      "_________________________________________________________________\n",
      "dense_1 (Dense)              (None, 128)               32896     \n",
      "_________________________________________________________________\n",
      "dense_2 (Dense)              (None, 32)                4128      \n",
      "_________________________________________________________________\n",
      "dense_3 (Dense)              (None, 9)                 297       \n",
      "=================================================================\n",
      "Total params: 268,081\n",
      "Trainable params: 268,081\n",
      "Non-trainable params: 0\n",
      "_________________________________________________________________\n"
     ]
    }
   ],
   "source": [
    "import tensorflow as tf\n",
    "tf.compat.v1.disable_eager_execution()\n",
    "\n",
    "def getlstmModel():\n",
…
